…
[38;5;15m  [39m[38;5;204mPRECISE_BN[39m[38;5;15m:[39m
[38;5;15m    [39m[38;5;204mENABLED[39m[38;5;15m:[39m[38;5;15m [39m[38;5;141mfalse[39m
[38;5;15m    [39m[38;5;204mNUM_ITER[39m[38;5;15m:[39m[38;5;15m [39m[38;5;141m200[39m
[38;5;204mVERSION[39m[38;5;15m:[39m[38;5;15m [39m[38;5;141m2[39m
[38;5;204mVIS_PERIOD[39m[38;5;15m:[39m[38;5;15m [39m[38;5;141m0[39m

[06/09 11:37:10] detectron2 INFO: Full config saved to ./output/vg/quick_schedules/test/config.yaml
[06/09 11:37:11] d2.engine.defaults INFO: Model:
CenterNet(
  (backbone): PoseHigherResolutionNet(
    (conv1): Conv2d(3, 64, kernel_size=(3, 3), stride=(2, 2), padding=(1, 1), bias=False)
    (bn1): SyncBatchNorm(64, eps=1e-05, momentum=0.01, affine=True, track_running_stats=True)
    (conv2): Conv2d(64, 64, kernel_size=(3, 3), stride=(2, 2), padding=(1, 1), bias=False)
    (bn2): SyncBatchNorm(64, eps=1e-05, momentum=0.01, affine=True, track_running_stats=True)
    (relu): ReLU(inplace=True)
    (layer1): Sequential(
      (0): Bottleneck(
        (conv1): Conv2d(64, 64, kernel_size=(1, 1), stride=(1, 1), bias=False)
        (bn1): SyncBatchNorm(64, eps=1e-05, momentum=0.01, affine=True, track_running_stats=True)
        (conv2): Conv2d(64, 64, kernel_size=(3, 3), stride=(1, 1), padding=(1, 1), bias=False)
        (bn2): SyncBatchNorm(64, eps=1e-05, momentum=0.01, affine=True, track_running_stats=True)
        (conv3): Conv2d(64, 256, kernel_size=(1, 1), stride=(1, 1), bias=False)
        (bn3): SyncBatchNorm(256, eps=1e-05, momentum=0.01, affine=True, track_running_stats=True)
        (relu): ReLU(inplace=True)
        (downsample): Sequential(
          (0): Conv2d(64, 256, kernel_size=(1, 1), stride=(1, 1), bias=False)
          (1): SyncBatchNorm(256, eps=1e-05, momentum=0.01, affine=True, track_running_stats=True)
        )
      )
      (1): Bottleneck(
        (conv1): Conv2d(256, 64, kernel_size=(1, 1), stride=(1, 1), bias=False)
        (bn1): SyncBatchNorm(64, eps=1e-05, momentum=0.01, affine=True, track_running_stats=True)
        (conv2): Conv2d(64, 64, kernel_size=(3, 3), stride=(1, 1), padding=(1, 1), bias=False)
        (bn2): SyncBatchNorm(64, eps=1e-05, momentum=0.01, affine=True, track_running_stats=True)
        (conv3): Conv2d(64, 256, kernel_size=(1, 1), stride=(1, 1), bias=False)
        (bn3): SyncBatchNorm(256, eps=1e-05, momentum=0.01, affine=True, track_running_stats=True)
        (relu): ReLU(inplace=True)
      )
      (2): Bottleneck(
        (conv1): Conv2d(256, 64, kernel_size=(1, 1), stride=(1, 1), bias=False)
        (bn1): SyncBatchNorm(64, eps=1e-05, momentum=0.01, affine=True, track_running_stats=True)
        (conv2): Conv2d(64, 64, kernel_size=(3, 3), stride=(1, 1), padding=(1, 1), bias=False)
        (bn2): SyncBatchNorm(64, eps=1e-05, momentum=0.01, affine=True, track_running_stats=True)
        (conv3): Conv2d(64, 256, kernel_size=(1, 1), stride=(1, 1), bias=False)
        (bn3): SyncBatchNorm(256, eps=1e-05, momentum=0.01, affine=True, track_running_stats=True)
        (relu): ReLU(inplace=True)
      )
      (3): Bottleneck(
        (conv1): Conv2d(256, 64, kernel_size=(1, 1), stride=(1, 1), bias=False)
        (bn1): SyncBatchNorm(64, eps=1e-05, momentum=0.01, affine=True, track_running_stats=True)
        (conv2): Conv2d(64, 64, kernel_size=(3, 3), stride=(1, 1), padding=(1, 1), bias=False)
        (bn2): SyncBatchNorm(64, eps=1e-05, momentum=0.01, affine=True, track_running_stats=True)
        (conv3): Conv2d(64, 256, kernel_size=(1, 1), stride=(1, 1), bias=False)
        (bn3): SyncBatchNorm(256, eps=1e-05, momentum=0.01, affine=True, track_running_stats=True)
        (relu): ReLU(inplace=True)
      )
    )
    (transition1): ModuleList(
      (0): Sequential(
        (0): Conv2d(256, 32, kernel_size=(3, 3), stride=(1, 1), padding=(1, 1), bias=False)
        (1): SyncBatchNorm(32, eps=1e-05, momentum=0.01, affine=True, track_running_stats=True)
        (2): ReLU(inplace=True)
      )
      (1): Sequential(
        (0): Sequential(
          (0): Conv2d(256, 64, kernel_size=(3, 3), stride=(2, 2), padding=(1, 1), bias=False)
          (1): SyncBatchNorm(64, eps=1e-05, momentum=0.01, affine=True, track_running_stats=True)
          (2): ReLU(inplace=True)
        )
      )
    )
    (stage2): Sequential(
      (0): HighResolutionModule(
        (branches): ModuleList(
          (0): Sequential(
            (0): BasicBlock(
              (conv1): Conv2d(32, 32, kernel_size=(3, 3), stride=(1, 1), padding=(1, 1), bias=False)
              (bn1): SyncBatchNorm(32, eps=1e-05, momentum=0.01, affine=True, track_running_stats=True)
              (relu): ReLU(inplace=True)
              (conv2): Conv2d(32, 32, kernel_size=(3, 3), stride=(1, 1), padding=(1, 1), bias=False)
              (bn2): SyncBatchNorm(32, eps=1e-05, momentum=0.01, affine=True, track_running_stats=True)
            )
            (1): BasicBlock(
              (conv1): Conv2d(32, 32, kernel_size=(3, 3), stride=(1, 1), padding=(1, 1), bias=False)
              (bn1): SyncBatchNorm(32, eps=1e-05, momentum=0.01, affine=True, track_running_stats=True)
              (relu): ReLU(inplace=True)
              (conv2): Conv2d(32, 32, kernel_size=(3, 3), stride=(1, 1), padding=(1, 1), bias=False)
              (bn2): SyncBatchNorm(32, eps=1e-05, momentum=0.01, affine=True, track_running_stats=True)
            )
            (2): BasicBlock(
              (conv1): Conv2d(32, 32, kernel_size=(3, 3), stride=(1, 1), padding=(1, 1), bias=False)
              (bn1): SyncBatchNorm(32, eps=1e-05, momentum=0.01, affine=True, track_running_stats=True)
              (relu): ReLU(inplace=True)
              (conv2): Conv2d(32, 32, kernel_size=(3, 3), stride=(1, 1), padding=(1, 1), bias=False)
              (bn2): SyncBatchNorm(32, eps=1e-05, momentum=0.01, affine=True, track_running_stats=True)
            )
            (3): BasicBlock(
              (conv1): Conv2d(32, 32, kernel_size=(3, 3), stride=(1, 1), padding=(1, 1), bias=False)
              (bn1): SyncBatchNorm(32, eps=1e-05, momentum=0.01, affine=True, track_running_stats=True)
              (relu): ReLU(inplace=True)
              (conv2): Conv2d(32, 32, kernel_size=(3, 3), stride=(1, 1), padding=(1, 1), bias=False)
              (bn2): SyncBatchNorm(32, eps=1e-05, momentum=0.01, affine=True, track_running_stats=True)
            )
          )
          (1): Sequential(
            (0): BasicBlock(
              (conv1): Conv2d(64, 64, kernel_size=(3, 3), stride=(1, 1), padding=(1, 1), bias=False)
              (bn1): SyncBatchNorm(64, eps=1e-05, momentum=0.01, affine=True, track_running_stats=True)
              (relu): ReLU(inplace=True)
              (conv2): Conv2d(64, 64, kernel_size=(3, 3), stride=(1, 1), padding=(1, 1), bias=False)
              (bn2): SyncBatchNorm(64, eps=1e-05, momentum=0.01, affine=True, track_running_stats=True)
            )
            (1): BasicBlock(
              (conv1): Conv2d(64, 64, kernel_size=(3, 3), stride=(1, 1), padding=(1, 1), bias=False)
              (bn1): SyncBatchNorm(64, eps=1e-05, momentum=0.01, affine=True, track_running_stats=True)
              (relu): ReLU(inplace=True)
              (conv2): Conv2d(64, 64, kernel_size=(3, 3), stride=(1, 1), padding=(1, 1), bias=False)
              (bn2): SyncBatchNorm(64, eps=1e-05, momentum=0.01, affine=True, track_running_stats=True)
            )
            (2): BasicBlock(
              (conv1): Conv2d(64, 64, kernel_size=(3, 3), stride=(1, 1), padding=(1, 1), bias=False)
              (bn1): SyncBatchNorm(64, eps=1e-05, momentum=0.01, affine=True, track_running_stats=True)
              (relu): ReLU(inplace=True)
              (conv2): Conv2d(64, 64, kernel_size=(3, 3), stride=(1, 1), padding=(1, 1), bias=False)
              (bn2): SyncBatchNorm(64, eps=1e-05, momentum=0.01, affine=True, track_running_stats=True)
            )
            (3): BasicBlock(
              (conv1): Conv2d(64, 64, kernel_size=(3, 3), stride=(1, 1), padding=(1, 1), bias=False)
              (bn1): SyncBatchNorm(64, eps=1e-05, momentum=0.01, affine=True, track_running_stats=True)
              (relu): ReLU(inplace=True)
              (conv2): Conv2d(64, 64, kernel_size=(3, 3), stride=(1, 1), padding=(1, 1), bias=False)
              (bn2): SyncBatchNorm(64, eps=1e-05, momentum=0.01, affine=True, track_running_stats=True)
            )
          )
        )
        (fuse_layers): ModuleList(
          (0): ModuleList(
            (0): None
            (1): Sequential(
              (0): Conv2d(64, 32, kernel_size=(1, 1), stride=(1, 1), bias=False)
              (1): SyncBatchNorm(32, eps=1e-05, momentum=0.01, affine=True, track_running_stats=True)
            )
          )
          (1): ModuleList(
            (0): Sequential(
              (0): Sequential(
                (0): Conv2d(32, 64, kernel_size=(3, 3), stride=(2, 2), padding=(1, 1), bias=False)
                (1): SyncBatchNorm(64, eps=1e-05, momentum=0.01, affine=True, track_running_stats=True)
              )
            )
            (1): None
          )
        )
        (relu): ReLU(inplace=True)
      )
    )
    (transition2): ModuleList(
      (0): None
      (1): None
      (2): Sequential(
        (0): Sequential(
          (0): Conv2d(64, 128, kernel_size=(3, 3), stride=(2, 2), padding=(1, 1), bias=False)
          (1): SyncBatchNorm(128, eps=1e-05, momentum=0.01, affine=True, track_running_stats=True)
          (2): ReLU(inplace=True)
        )
      )
    )
    (stage3): Sequential(
      (0): HighResolutionModule(
        (branches): ModuleList(
          (0): Sequential(
            (0): BasicBlock(
              (conv1): Conv2d(32, 32, kernel_size=(3, 3), stride=(1, 1), padding=(1, 1), bias=False)
              (bn1): SyncBatchNorm(32, eps=1e-05, momentum=0.01, affine=True, track_running_stats=True)
              (relu): ReLU(inplace=True)
              (conv2): Conv2d(32, 32, kernel_size=(3, 3), stride=(1, 1), padding=(1, 1), bias=False)
              (bn2): SyncBatchNorm(32, eps=1e-05, momentum=0.01, affine=True, track_running_stats=True)
            )
            (1): BasicBlock(
              (conv1): Conv2d(32, 32, kernel_size=(3, 3), stride=(1, 1), padding=(1, 1), bias=False)
              (bn1): SyncBatchNorm(32, eps=1e-05, momentum=0.01, affine=True, track_running_stats=True)
              (relu): ReLU(inplace=True)
              (conv2): Conv2d(32, 32, kernel_size=(3, 3), stride=(1, 1), padding=(1, 1), bias=False)
              (bn2): SyncBatchNorm(32, eps=1e-05, momentum=0.01, affine=True, track_running_stats=True)
            )
            (2): BasicBlock(
              (conv1): Conv2d(32, 32, kernel_size=(3, 3), stride=(1, 1), padding=(1, 1), bias=False)
              (bn1): SyncBatchNorm(32, eps=1e-05, momentum=0.01, affine=True, track_running_stats=True)
              (relu): ReLU(inplace=True)
              (conv2): Conv2d(32, 32, kernel_size=(3, 3), stride=(1, 1), padding=(1, 1), bias=False)
              (bn2): SyncBatchNorm(32, eps=1e-05, momentum=0.01, affine=True, track_running_stats=True)
            )
            (3): BasicBlock(
              (conv1): Conv2d(32, 32, kernel_size=(3, 3), stride=(1, 1), padding=(1, 1), bias=False)
              (bn1): SyncBatchNorm(32, eps=1e-05, momentum=0.01, affine=True, track_running_stats=True)
              (relu): ReLU(inplace=True)
              (conv2): Conv2d(32, 32, kernel_size=(3, 3), stride=(1, 1), padding=(1, 1), bias=False)
              (bn2): SyncBatchNorm(32, eps=1e-05, momentum=0.01, affine=True, track_running_stats=True)
            )
          )
          (1): Sequential(
            (0): BasicBlock(
              (conv1): Conv2d(64, 64, kernel_size=(3, 3), stride=(1, 1), padding=(1, 1), bias=False)
              (bn1): SyncBatchNorm(64, eps=1e-05, momentum=0.01, affine=True, track_running_stats=True)
              (relu): ReLU(inplace=True)
              (conv2): Conv2d(64, 64, kernel_size=(3, 3), stride=(1, 1), padding=(1, 1), bias=False)
              (bn2): SyncBatchNorm(64, eps=1e-05, momentum=0.01, affine=True, track_running_stats=True)
            )
            (1): BasicBlock(
              (conv1): Conv2d(64, 64, kernel_size=(3, 3), stride=(1, 1), padding=(1, 1), bias=False)
              (bn1): SyncBatchNorm(64, eps=1e-05, momentum=0.01, affine=True, track_running_stats=True)
              (relu): ReLU(inplace=True)
              (conv2): Conv2d(64, 64, kernel_size=(3, 3), stride=(1, 1), padding=(1, 1), bias=False)
              (bn2): SyncBatchNorm(64, eps=1e-05, momentum=0.01, affine=True, track_running_stats=True)
            )
            (2): BasicBlock(
              (conv1): Conv2d(64, 64, kernel_size=(3, 3), stride=(1, 1), padding=(1, 1), bias=False)
              (bn1): SyncBatchNorm(64, eps=1e-05, momentum=0.01, affine=True, track_running_stats=True)
              (relu): ReLU(inplace=True)
              (conv2): Conv2d(64, 64, kernel_size=(3, 3), stride=(1, 1), padding=(1, 1), bias=False)
              (bn2): SyncBatchNorm(64, eps=1e-05, momentum=0.01, affine=True, track_running_stats=True)
            )
            (3): BasicBlock(
              (conv1): Conv2d(64, 64, kernel_size=(3, 3), stride=(1, 1), padding=(1, 1), bias=False)
              (bn1): SyncBatchNorm(64, eps=1e-05, momentum=0.01, affine=True, track_running_stats=True)
              (relu): ReLU(inplace=True)
              (conv2): Conv2d(64, 64, kernel_size=(3, 3), stride=(1, 1), padding=(1, 1), bias=False)
              (bn2): SyncBatchNorm(64, eps=1e-05, momentum=0.01, affine=True, track_running_stats=True)
            )
          )
          (2): Sequential(
            (0): BasicBlock(
              (conv1): Conv2d(128, 128, kernel_size=(3, 3), stride=(1, 1), padding=(1, 1), bias=False)
              (bn1): SyncBatchNorm(128, eps=1e-05, momentum=0.01, affine=True, track_running_stats=True)
              (relu): ReLU(inplace=True)
              (conv2): Conv2d(128, 128, kernel_size=(3, 3), stride=(1, 1), padding=(1, 1), bias=False)
              (bn2): SyncBatchNorm(128, eps=1e-05, momentum=0.01, affine=True, track_running_stats=True)
            )
            (1): BasicBlock(
              (conv1): Conv2d(128, 128, kernel_size=(3, 3), stride=(1, 1), padding=(1, 1), bias=False)
              (bn1): SyncBatchNorm(128, eps=1e-05, momentum=0.01, affine=True, track_running_stats=True)
              (relu): ReLU(inplace=True)
              (conv2): Conv2d(128, 128, kernel_size=(3, 3), stride=(1, 1), padding=(1, 1), bias=False)
              (bn2): SyncBatchNorm(128, eps=1e-05, momentum=0.01, affine=True, track_running_stats=True)
            )
            (2): BasicBlock(
              (conv1): Conv2d(128, 128, kernel_size=(3, 3), stride=(1, 1), padding=(1, 1), bias=False)
              (bn1): SyncBatchNorm(128, eps=1e-05, momentum=0.01, affine=True, track_running_stats=True)
              (relu): ReLU(inplace=True)
              (conv2): Conv2d(128, 128, kernel_size=(3, 3), stride=(1, 1), padding=(1, 1), bias=False)
              (bn2): SyncBatchNorm(128, eps=1e-05, momentum=0.01, affine=True, track_running_stats=True)
            )
            (3): BasicBlock(
              (conv1): Conv2d(128, 128, kernel_size=(3, 3), stride=(1, 1), padding=(1, 1), bias=False)
              (bn1): SyncBatchNorm(128, eps=1e-05, momentum=0.01, affine=True, track_running_stats=True)
              (relu): ReLU(inplace=True)
              (conv2): Conv2d(128, 128, kernel_size=(3, 3), stride=(1, 1), padding=(1, 1), bias=False)
              (bn2): SyncBatchNorm(128, eps=1e-05, momentum=0.01, affine=True, track_running_stats=True)
            )
          )
        )
        (fuse_layers): ModuleList(
          (0): ModuleList(
            (0): None
            (1): Sequential(
              (0): Conv2d(64, 32, kernel_size=(1, 1), stride=(1, 1), bias=False)
              (1): SyncBatchNorm(32, eps=1e-05, momentum=0.01, affine=True, track_running_stats=True)
            )
            (2): Sequential(
              (0): Conv2d(128, 32, kernel_size=(1, 1), stride=(1, 1), bias=False)
              (1): SyncBatchNorm(32, eps=1e-05, momentum=0.01, affine=True, track_running_stats=True)
            )
          )
          (1): ModuleList(
            (0): Sequential(
              (0): Sequential(
                (0): Conv2d(32, 64, kernel_size=(3, 3), stride=(2, 2), padding=(1, 1), bias=False)
                (1): SyncBatchNorm(64, eps=1e-05, momentum=0.01, affine=True, track_running_stats=True)
              )
            )
            (1): None
            (2): Sequential(
              (0): Conv2d(128, 64, kernel_size=(1, 1), stride=(1, 1), bias=False)
              (1): SyncBatchNorm(64, eps=1e-05, momentum=0.01, affine=True, track_running_stats=True)
            )
          )
          (2): ModuleList(
            (0): Sequential(
              (0): Sequential(
                (0): Conv2d(32, 32, kernel_size=(3, 3), stride=(2, 2), padding=(1, 1), bias=False)
                (1): SyncBatchNorm(32, eps=1e-05, momentum=0.01, affine=True, track_running_stats=True)
                (2): ReLU(inplace=True)
              )
              (1): Sequential(
                (0): Conv2d(32, 128, kernel_size=(3, 3), stride=(2, 2), padding=(1, 1), bias=False)
                (1): SyncBatchNorm(128, eps=1e-05, momentum=0.01, affine=True, track_running_stats=True)
              )
            )
            (1): Sequential(
              (0): Sequential(
                (0): Conv2d(64, 128, kernel_size=(3, 3), stride=(2, 2), padding=(1, 1), bias=False)
                (1): SyncBatchNorm(128, eps=1e-05, momentum=0.01, affine=True, track_running_stats=True)
              )
            )
            (2): None
          )
        )
        (relu): ReLU(inplace=True)
      )
      (1): HighResolutionModule(
        (branches): ModuleList(
          (0): Sequential(
            (0): BasicBlock(
              (conv1): Conv2d(32, 32, kernel_size=(3, 3), stride=(1, 1), padding=(1, 1), bias=False)
              (bn1): SyncBatchNorm(32, eps=1e-05, momentum=0.01, affine=True, track_running_stats=True)
              (relu): ReLU(inplace=True)
              (conv2): Conv2d(32, 32, kernel_size=(3, 3), stride=(1, 1), padding=(1, 1), bias=False)
              (bn2): SyncBatchNorm(32, eps=1e-05, momentum=0.01, affine=True, track_running_stats=True)
            )
            (1): BasicBlock(
              (conv1): Conv2d(32, 32, kernel_size=(3, 3), stride=(1, 1), padding=(1, 1), bias=False)
              (bn1): SyncBatchNorm(32, eps=1e-05, momentum=0.01, affine=True, track_running_stats=True)
              (relu): ReLU(inplace=True)
              (conv2): Conv2d(32, 32, kernel_size=(3, 3), stride=(1, 1), padding=(1, 1), bias=False)
              (bn2): SyncBatchNorm(32, eps=1e-05, momentum=0.01, affine=True, track_running_stats=True)
            )
            (2): BasicBlock(
              (conv1): Conv2d(32, 32, kernel_size=(3, 3), stride=(1, 1), padding=(1, 1), bias=False)
              (bn1): SyncBatchNorm(32, eps=1e-05, momentum=0.01, affine=True, track_running_stats=True)
              (relu): ReLU(inplace=True)
              (conv2): Conv2d(32, 32, kernel_size=(3, 3), stride=(1, 1), padding=(1, 1), bias=False)
              (bn2): SyncBatchNorm(32, eps=1e-05, momentum=0.01, affine=True, track_running_stats=True)
            )
            (3): BasicBlock(
              (conv1): Conv2d(32, 32, kernel_size=(3, 3), stride=(1, 1), padding=(1, 1), bias=False)
              (bn1): SyncBatchNorm(32, eps=1e-05, momentum=0.01, affine=True, track_running_stats=True)
              (relu): ReLU(inplace=True)
              (conv2): Conv2d(32, 32, kernel_size=(3, 3), stride=(1, 1), padding=(1, 1), bias=False)
              (bn2): SyncBatchNorm(32, eps=1e-05, momentum=0.01, affine=True, track_running_stats=True)
            )
          )
          (1): Sequential(
            (0): BasicBlock(
              (conv1): Conv2d(64, 64, kernel_size=(3, 3), stride=(1, 1), padding=(1, 1), bias=False)
              (bn1): SyncBatchNorm(64, eps=1e-05, momentum=0.01, affine=True, track_running_stats=True)
              (relu): ReLU(inplace=True)
              (conv2): Conv2d(64, 64, kernel_size=(3, 3), stride=(1, 1), padding=(1, 1), bias=False)
              (bn2): SyncBatchNorm(64, eps=1e-05, momentum=0.01, affine=True, track_running_stats=True)
            )
            (1): BasicBlock(
              (conv1): Conv2d(64, 64, kernel_size=(3, 3), stride=(1, 1), padding=(1, 1), bias=False)
              (bn1): SyncBatchNorm(64, eps=1e-05, momentum=0.01, affine=True, track_running_stats=True)
              (relu): ReLU(inplace=True)
              (conv2): Conv2d(64, 64, kernel_size=(3, 3), stride=(1, 1), padding=(1, 1), bias=False)
              (bn2): SyncBatchNorm(64, eps=1e-05, momentum=0.01, affine=True, track_running_stats=True)
            )
            (2): BasicBlock(
              (conv1): Conv2d(64, 64, kernel_size=(3, 3), stride=(1, 1), padding=(1, 1), bias=False)
              (bn1): SyncBatchNorm(64, eps=1e-05, momentum=0.01, affine=True, track_running_stats=True)
              (relu): ReLU(inplace=True)
              (conv2): Conv2d(64, 64, kernel_size=(3, 3), stride=(1, 1), padding=(1, 1), bias=False)
              (bn2): SyncBatchNorm(64, eps=1e-05, momentum=0.01, affine=True, track_running_stats=True)
            )
            (3): BasicBlock(
              (conv1): Conv2d(64, 64, kernel_size=(3, 3), stride=(1, 1), padding=(1, 1), bias=False)
              (bn1): SyncBatchNorm(64, eps=1e-05, momentum=0.01, affine=True, track_running_stats=True)
              (relu): ReLU(inplace=True)
              (conv2): Conv2d(64, 64, kernel_size=(3, 3), stride=(1, 1), padding=(1, 1), bias=False)
              (bn2): SyncBatchNorm(64, eps=1e-05, momentum=0.01, affine=True, track_running_stats=True)
            )
          )
          (2): Sequential(
            (0): BasicBlock(
              (conv1): Conv2d(128, 128, kernel_size=(3, 3), stride=(1, 1), padding=(1, 1), bias=False)
              (bn1): SyncBatchNorm(128, eps=1e-05, momentum=0.01, affine=True, track_running_stats=True)
              (relu): ReLU(inplace=True)
              (conv2): Conv2d(128, 128, kernel_size=(3, 3), stride=(1, 1), padding=(1, 1), bias=False)
              (bn2): SyncBatchNorm(128, eps=1e-05, momentum=0.01, affine=True, track_running_stats=True)
            )
            (1): BasicBlock(
              (conv1): Conv2d(128, 128, kernel_size=(3, 3), stride=(1, 1), padding=(1, 1), bias=False)
              (bn1): SyncBatchNorm(128, eps=1e-05, momentum=0.01, affine=True, track_running_stats=True)
              (relu): ReLU(inplace=True)
              (conv2): Conv2d(128, 128, kernel_size=(3, 3), stride=(1, 1), padding=(1, 1), bias=False)
              (bn2): SyncBatchNorm(128, eps=1e-05, momentum=0.01, affine=True, track_running_stats=True)
            )
            (2): BasicBlock(
              (conv1): Conv2d(128, 128, kernel_size=(3, 3), stride=(1, 1), padding=(1, 1), bias=False)
              (bn1): SyncBatchNorm(128, eps=1e-05, momentum=0.01, affine=True, track_running_stats=True)
              (relu): ReLU(inplace=True)
              (conv2): Conv2d(128, 128, kernel_size=(3, 3), stride=(1, 1), padding=(1, 1), bias=False)
              (bn2): SyncBatchNorm(128, eps=1e-05, momentum=0.01, affine=True, track_running_stats=True)
            )
            (3): BasicBlock(
              (conv1): Conv2d(128, 128, kernel_size=(3, 3), stride=(1, 1), padding=(1, 1), bias=False)
              (bn1): SyncBatchNorm(128, eps=1e-05, momentum=0.01, affine=True, track_running_stats=True)
              (relu): ReLU(inplace=True)
              (conv2): Conv2d(128, 128, kernel_size=(3, 3), stride=(1, 1), padding=(1, 1), bias=False)
              (bn2): SyncBatchNorm(128, eps=1e-05, momentum=0.01, affine=True, track_running_stats=True)
            )
          )
        )
        (fuse_layers): ModuleList(
          (0): ModuleList(
            (0): None
            (1): Sequential(
              (0): Conv2d(64, 32, kernel_size=(1, 1), stride=(1, 1), bias=False)
              (1): SyncBatchNorm(32, eps=1e-05, momentum=0.01, affine=True, track_running_stats=True)
            )
            (2): Sequential(
              (0): Conv2d(128, 32, kernel_size=(1, 1), stride=(1, 1), bias=False)
              (1): SyncBatchNorm(32, eps=1e-05, momentum=0.01, affine=True, track_running_stats=True)
            )
          )
          (1): ModuleList(
            (0): Sequential(
              (0): Sequential(
                (0): Conv2d(32, 64, kernel_size=(3, 3), stride=(2, 2), padding=(1, 1), bias=False)
                (1): SyncBatchNorm(64, eps=1e-05, momentum=0.01, affine=True, track_running_stats=True)
              )
            )
            (1): None
            (2): Sequential(
              (0): Conv2d(128, 64, kernel_size=(1, 1), stride=(1, 1), bias=False)
              (1): SyncBatchNorm(64, eps=1e-05, momentum=0.01, affine=True, track_running_stats=True)
            )
          )
          (2): ModuleList(
            (0): Sequential(
              (0): Sequential(
                (0): Conv2d(32, 32, kernel_size=(3, 3), stride=(2, 2), padding=(1, 1), bias=False)
                (1): SyncBatchNorm(32, eps=1e-05, momentum=0.01, affine=True, track_running_stats=True)
                (2): ReLU(inplace=True)
              )
              (1): Sequential(
                (0): Conv2d(32, 128, kernel_size=(3, 3), stride=(2, 2), padding=(1, 1), bias=False)
                (1): SyncBatchNorm(128, eps=1e-05, momentum=0.01, affine=True, track_running_stats=True)
              )
            )
            (1): Sequential(
              (0): Sequential(
                (0): Conv2d(64, 128, kernel_size=(3, 3), stride=(2, 2), padding=(1, 1), bias=False)
                (1): SyncBatchNorm(128, eps=1e-05, momentum=0.01, affine=True, track_running_stats=True)
              )
            )
            (2): None
          )
        )
        (relu): ReLU(inplace=True)
      )
      (2): HighResolutionModule(
        (branches): ModuleList(
          (0): Sequential(
            (0): BasicBlock(
              (conv1): Conv2d(32, 32, kernel_size=(3, 3), stride=(1, 1), padding=(1, 1), bias=False)
              (bn1): SyncBatchNorm(32, eps=1e-05, momentum=0.01, affine=True, track_running_stats=True)
              (relu): ReLU(inplace=True)
              (conv2): Conv2d(32, 32, kernel_size=(3, 3), stride=(1, 1), padding=(1, 1), bias=False)
              (bn2): SyncBatchNorm(32, eps=1e-05, momentum=0.01, affine=True, track_running_stats=True)
            )
            (1): BasicBlock(
              (conv1): Conv2d(32, 32, kernel_size=(3, 3), stride=(1, 1), padding=(1, 1), bias=False)
              (bn1): SyncBatchNorm(32, eps=1e-05, momentum=0.01, affine=True, track_running_stats=True)
              (relu): ReLU(inplace=True)
              (conv2): Conv2d(32, 32, kernel_size=(3, 3), stride=(1, 1), padding=(1, 1), bias=False)
              (bn2): SyncBatchNorm(32, eps=1e-05, momentum=0.01, affine=True, track_running_stats=True)
            )
            (2): BasicBlock(
              (conv1): Conv2d(32, 32, kernel_size=(3, 3), stride=(1, 1), padding=(1, 1), bias=False)
              (bn1): SyncBatchNorm(32, eps=1e-05, momentum=0.01, affine=True, track_running_stats=True)
              (relu): ReLU(inplace=True)
              (conv2): Conv2d(32, 32, kernel_size=(3, 3), stride=(1, 1), padding=(1, 1), bias=False)
              (bn2): SyncBatchNorm(32, eps=1e-05, momentum=0.01, affine=True, track_running_stats=True)
            )
            (3): BasicBlock(
              (conv1): Conv2d(32, 32, kernel_size=(3, 3), stride=(1, 1), padding=(1, 1), bias=False)
              (bn1): SyncBatchNorm(32, eps=1e-05, momentum=0.01, affine=True, track_running_stats=True)
              (relu): ReLU(inplace=True)
              (conv2): Conv2d(32, 32, kernel_size=(3, 3), stride=(1, 1), padding=(1, 1), bias=False)
              (bn2): SyncBatchNorm(32, eps=1e-05, momentum=0.01, affine=True, track_running_stats=True)
            )
          )
          (1): Sequential(
            (0): BasicBlock(
              (conv1): Conv2d(64, 64, kernel_size=(3, 3), stride=(1, 1), padding=(1, 1), bias=False)
              (bn1): SyncBatchNorm(64, eps=1e-05, momentum=0.01, affine=True, track_running_stats=True)
              (relu): ReLU(inplace=True)
              (conv2): Conv2d(64, 64, kernel_size=(3, 3), stride=(1, 1), padding=(1, 1), bias=False)
              (bn2): SyncBatchNorm(64, eps=1e-05, momentum=0.01, affine=True, track_running_stats=True)
            )
            (1): BasicBlock(
              (conv1): Conv2d(64, 64, kernel_size=(3, 3), stride=(1, 1), padding=(1, 1), bias=False)
              (bn1): SyncBatchNorm(64, eps=1e-05, momentum=0.01, affine=True, track_running_stats=True)
              (relu): ReLU(inplace=True)
              (conv2): Conv2d(64, 64, kernel_size=(3, 3), stride=(1, 1), padding=(1, 1), bias=False)
              (bn2): SyncBatchNorm(64, eps=1e-05, momentum=0.01, affine=True, track_running_stats=True)
            )
            (2): BasicBlock(
              (conv1): Conv2d(64, 64, kernel_size=(3, 3), stride=(1, 1), padding=(1, 1), bias=False)
              (bn1): SyncBatchNorm(64, eps=1e-05, momentum=0.01, affine=True, track_running_stats=True)
              (relu): ReLU(inplace=True)
              (conv2): Conv2d(64, 64, kernel_size=(3, 3), stride=(1, 1), padding=(1, 1), bias=False)
              (bn2): SyncBatchNorm(64, eps=1e-05, momentum=0.01, affine=True, track_running_stats=True)
            )
            (3): BasicBlock(
              (conv1): Conv2d(64, 64, kernel_size=(3, 3), stride=(1, 1), padding=(1, 1), bias=False)
              (bn1): SyncBatchNorm(64, eps=1e-05, momentum=0.01, affine=True, track_running_stats=True)
              (relu): ReLU(inplace=True)
              (conv2): Conv2d(64, 64, kernel_size=(3, 3), stride=(1, 1), padding=(1, 1), bias=False)
              (bn2): SyncBatchNorm(64, eps=1e-05, momentum=0.01, affine=True, track_running_stats=True)
            )
          )
          (2): Sequential(
            (0): BasicBlock(
              (conv1): Conv2d(128, 128, kernel_size=(3, 3), stride=(1, 1), padding=(1, 1), bias=False)
              (bn1): SyncBatchNorm(128, eps=1e-05, momentum=0.01, affine=True, track_running_stats=True)
              (relu): ReLU(inplace=True)
              (conv2): Conv2d(128, 128, kernel_size=(3, 3), stride=(1, 1), padding=(1, 1), bias=False)
              (bn2): SyncBatchNorm(128, eps=1e-05, momentum=0.01, affine=True, track_running_stats=True)
            )
            (1): BasicBlock(
              (conv1): Conv2d(128, 128, kernel_size=(3, 3), stride=(1, 1), padding=(1, 1), bias=False)
              (bn1): SyncBatchNorm(128, eps=1e-05, momentum=0.01, affine=True, track_running_stats=True)
              (relu): ReLU(inplace=True)
              (conv2): Conv2d(128, 128, kernel_size=(3, 3), stride=(1, 1), padding=(1, 1), bias=False)
              (bn2): SyncBatchNorm(128, eps=1e-05, momentum=0.01, affine=True, track_running_stats=True)
            )
            (2): BasicBlock(
              (conv1): Conv2d(128, 128, kernel_size=(3, 3), stride=(1, 1), padding=(1, 1), bias=False)
              (bn1): SyncBatchNorm(128, eps=1e-05, momentum=0.01, affine=True, track_running_stats=True)
              (relu): ReLU(inplace=True)
              (conv2): Conv2d(128, 128, kernel_size=(3, 3), stride=(1, 1), padding=(1, 1), bias=False)
              (bn2): SyncBatchNorm(128, eps=1e-05, momentum=0.01, affine=True, track_running_stats=True)
            )
            (3): BasicBlock(
              (conv1): Conv2d(128, 128, kernel_size=(3, 3), stride=(1, 1), padding=(1, 1), bias=False)
              (bn1): SyncBatchNorm(128, eps=1e-05, momentum=0.01, affine=True, track_running_stats=True)
              (relu): ReLU(inplace=True)
              (conv2): Conv2d(128, 128, kernel_size=(3, 3), stride=(1, 1), padding=(1, 1), bias=False)
              (bn2): SyncBatchNorm(128, eps=1e-05, momentum=0.01, affine=True, track_running_stats=True)
            )
          )
        )
        (fuse_layers): ModuleList(
          (0): ModuleList(
            (0): None
            (1): Sequential(
              (0): Conv2d(64, 32, kernel_size=(1, 1), stride=(1, 1), bias=False)
              (1): SyncBatchNorm(32, eps=1e-05, momentum=0.01, affine=True, track_running_stats=True)
            )
            (2): Sequential(
              (0): Conv2d(128, 32, kernel_size=(1, 1), stride=(1, 1), bias=False)
              (1): SyncBatchNorm(32, eps=1e-05, momentum=0.01, affine=True, track_running_stats=True)
            )
          )
          (1): ModuleList(
            (0): Sequential(
              (0): Sequential(
                (0): Conv2d(32, 64, kernel_size=(3, 3), stride=(2, 2), padding=(1, 1), bias=False)
                (1): SyncBatchNorm(64, eps=1e-05, momentum=0.01, affine=True, track_running_stats=True)
              )
            )
            (1): None
            (2): Sequential(
              (0): Conv2d(128, 64, kernel_size=(1, 1), stride=(1, 1), bias=False)
              (1): SyncBatchNorm(64, eps=1e-05, momentum=0.01, affine=True, track_running_stats=True)
            )
          )
          (2): ModuleList(
            (0): Sequential(
              (0): Sequential(
                (0): Conv2d(32, 32, kernel_size=(3, 3), stride=(2, 2), padding=(1, 1), bias=False)
                (1): SyncBatchNorm(32, eps=1e-05, momentum=0.01, affine=True, track_running_stats=True)
                (2): ReLU(inplace=True)
              )
              (1): Sequential(
                (0): Conv2d(32, 128, kernel_size=(3, 3), stride=(2, 2), padding=(1, 1), bias=False)
                (1): SyncBatchNorm(128, eps=1e-05, momentum=0.01, affine=True, track_running_stats=True)
              )
            )
            (1): Sequential(
              (0): Sequential(
                (0): Conv2d(64, 128, kernel_size=(3, 3), stride=(2, 2), padding=(1, 1), bias=False)
                (1): SyncBatchNorm(128, eps=1e-05, momentum=0.01, affine=True, track_running_stats=True)
              )
            )
            (2): None
          )
        )
        (relu): ReLU(inplace=True)
      )
      (3): HighResolutionModule(
        (branches): ModuleList(
          (0): Sequential(
            (0): BasicBlock(
              (conv1): Conv2d(32, 32, kernel_size=(3, 3), stride=(1, 1), padding=(1, 1), bias=False)
              (bn1): SyncBatchNorm(32, eps=1e-05, momentum=0.01, affine=True, track_running_stats=True)
              (relu): ReLU(inplace=True)
              (conv2): Conv2d(32, 32, kernel_size=(3, 3), stride=(1, 1), padding=(1, 1), bias=False)
              (bn2): SyncBatchNorm(32, eps=1e-05, momentum=0.01, affine=True, track_running_stats=True)
            )
            (1): BasicBlock(
              (conv1): Conv2d(32, 32, kernel_size=(3, 3), stride=(1, 1), padding=(1, 1), bias=False)
              (bn1): SyncBatchNorm(32, eps=1e-05, momentum=0.01, affine=True, track_running_stats=True)
              (relu): ReLU(inplace=True)
              (conv2): Conv2d(32, 32, kernel_size=(3, 3), stride=(1, 1), padding=(1, 1), bias=False)
              (bn2): SyncBatchNorm(32, eps=1e-05, momentum=0.01, affine=True, track_running_stats=True)
            )
            (2): BasicBlock(
              (conv1): Conv2d(32, 32, kernel_size=(3, 3), stride=(1, 1), padding=(1, 1), bias=False)
              (bn1): SyncBatchNorm(32, eps=1e-05, momentum=0.01, affine=True, track_running_stats=True)
              (relu): ReLU(inplace=True)
              (conv2): Conv2d(32, 32, kernel_size=(3, 3), stride=(1, 1), padding=(1, 1), bias=False)
              (bn2): SyncBatchNorm(32, eps=1e-05, momentum=0.01, affine=True, track_running_stats=True)
            )
            (3): BasicBlock(
              (conv1): Conv2d(32, 32, kernel_size=(3, 3), stride=(1, 1), padding=(1, 1), bias=False)
              (bn1): SyncBatchNorm(32, eps=1e-05, momentum=0.01, affine=True, track_running_stats=True)
              (relu): ReLU(inplace=True)
              (conv2): Conv2d(32, 32, kernel_size=(3, 3), stride=(1, 1), padding=(1, 1), bias=False)
              (bn2): SyncBatchNorm(32, eps=1e-05, momentum=0.01, affine=True, track_running_stats=True)
            )
          )
          (1): Sequential(
            (0): BasicBlock(
              (conv1): Conv2d(64, 64, kernel_size=(3, 3), stride=(1, 1), padding=(1, 1), bias=False)
              (bn1): SyncBatchNorm(64, eps=1e-05, momentum=0.01, affine=True, track_running_stats=True)
              (relu): ReLU(inplace=True)
              (conv2): Conv2d(64, 64, kernel_size=(3, 3), stride=(1, 1), padding=(1, 1), bias=False)
              (bn2): SyncBatchNorm(64, eps=1e-05, momentum=0.01, affine=True, track_running_stats=True)
            )
            (1): BasicBlock(
              (conv1): Conv2d(64, 64, kernel_size=(3, 3), stride=(1, 1), padding=(1, 1), bias=False)
              (bn1): SyncBatchNorm(64, eps=1e-05, momentum=0.01, affine=True, track_running_stats=True)
              (relu): ReLU(inplace=True)
              (conv2): Conv2d(64, 64, kernel_size=(3, 3), stride=(1, 1), padding=(1, 1), bias=False)
              (bn2): SyncBatchNorm(64, eps=1e-05, momentum=0.01, affine=True, track_running_stats=True)
            )
            (2): BasicBlock(
              (conv1): Conv2d(64, 64, kernel_size=(3, 3), stride=(1, 1), padding=(1, 1), bias=False)
              (bn1): SyncBatchNorm(64, eps=1e-05, momentum=0.01, affine=True, track_running_stats=True)
              (relu): ReLU(inplace=True)
              (conv2): Conv2d(64, 64, kernel_size=(3, 3), stride=(1, 1), padding=(1, 1), bias=False)
              (bn2): SyncBatchNorm(64, eps=1e-05, momentum=0.01, affine=True, track_running_stats=True)
            )
            (3): BasicBlock(
              (conv1): Conv2d(64, 64, kernel_size=(3, 3), stride=(1, 1), padding=(1, 1), bias=False)
              (bn1): SyncBatchNorm(64, eps=1e-05, momentum=0.01, affine=True, track_running_stats=True)
              (relu): ReLU(inplace=True)
              (conv2): Conv2d(64, 64, kernel_size=(3, 3), stride=(1, 1), padding=(1, 1), bias=False)
              (bn2): SyncBatchNorm(64, eps=1e-05, momentum=0.01, affine=True, track_running_stats=True)
            )
          )
          (2): Sequential(
            (0): BasicBlock(
              (conv1): Conv2d(128, 128, kernel_size=(3, 3), stride=(1, 1), padding=(1, 1), bias=False)
              (bn1): SyncBatchNorm(128, eps=1e-05, momentum=0.01, affine=True, track_running_stats=True)
              (relu): ReLU(inplace=True)
              (conv2): Conv2d(128, 128, kernel_size=(3, 3), stride=(1, 1), padding=(1, 1), bias=False)
              (bn2): SyncBatchNorm(128, eps=1e-05, momentum=0.01, affine=True, track_running_stats=True)
            )
            (1): BasicBlock(
              (conv1): Conv2d(128, 128, kernel_size=(3, 3), stride=(1, 1), padding=(1, 1), bias=False)
              (bn1): SyncBatchNorm(128, eps=1e-05, momentum=0.01, affine=True, track_running_stats=True)
              (relu): ReLU(inplace=True)
              (conv2): Conv2d(128, 128, kernel_size=(3, 3), stride=(1, 1), padding=(1, 1), bias=False)
              (bn2): SyncBatchNorm(128, eps=1e-05, momentum=0.01, affine=True, track_running_stats=True)
            )
            (2): BasicBlock(
              (conv1): Conv2d(128, 128, kernel_size=(3, 3), stride=(1, 1), padding=(1, 1), bias=False)
              (bn1): SyncBatchNorm(128, eps=1e-05, momentum=0.01, affine=True, track_running_stats=True)
              (relu): ReLU(inplace=True)
              (conv2): Conv2d(128, 128, kernel_size=(3, 3), stride=(1, 1), padding=(1, 1), bias=False)
              (bn2): SyncBatchNorm(128, eps=1e-05, momentum=0.01, affine=True, track_running_stats=True)
            )
            (3): BasicBlock(
              (conv1): Conv2d(128, 128, kernel_size=(3, 3), stride=(1, 1), padding=(1, 1), bias=False)
              (bn1): SyncBatchNorm(128, eps=1e-05, momentum=0.01, affine=True, track_running_stats=True)
              (relu): ReLU(inplace=True)
              (conv2): Conv2d(128, 128, kernel_size=(3, 3), stride=(1, 1), padding=(1, 1), bias=False)
              (bn2): SyncBatchNorm(128, eps=1e-05, momentum=0.01, affine=True, track_running_stats=True)
            )
          )
        )
        (fuse_layers): ModuleList(
          (0): ModuleList(
            (0): None
            (1): Sequential(
              (0): Conv2d(64, 32, kernel_size=(1, 1), stride=(1, 1), bias=False)
              (1): SyncBatchNorm(32, eps=1e-05, momentum=0.01, affine=True, track_running_stats=True)
            )
            (2): Sequential(
              (0): Conv2d(128, 32, kernel_size=(1, 1), stride=(1, 1), bias=False)
              (1): SyncBatchNorm(32, eps=1e-05, momentum=0.01, affine=True, track_running_stats=True)
            )
          )
          (1): ModuleList(
            (0): Sequential(
              (0): Sequential(
                (0): Conv2d(32, 64, kernel_size=(3, 3), stride=(2, 2), padding=(1, 1), bias=False)
                (1): SyncBatchNorm(64, eps=1e-05, momentum=0.01, affine=True, track_running_stats=True)
              )
            )
            (1): None
            (2): Sequential(
              (0): Conv2d(128, 64, kernel_size=(1, 1), stride=(1, 1), bias=False)
              (1): SyncBatchNorm(64, eps=1e-05, momentum=0.01, affine=True, track_running_stats=True)
            )
          )
          (2): ModuleList(
            (0): Sequential(
              (0): Sequential(
                (0): Conv2d(32, 32, kernel_size=(3, 3), stride=(2, 2), padding=(1, 1), bias=False)
                (1): SyncBatchNorm(32, eps=1e-05, momentum=0.01, affine=True, track_running_stats=True)
                (2): ReLU(inplace=True)
              )
              (1): Sequential(
                (0): Conv2d(32, 128, kernel_size=(3, 3), stride=(2, 2), padding=(1, 1), bias=False)
                (1): SyncBatchNorm(128, eps=1e-05, momentum=0.01, affine=True, track_running_stats=True)
              )
            )
            (1): Sequential(
              (0): Sequential(
                (0): Conv2d(64, 128, kernel_size=(3, 3), stride=(2, 2), padding=(1, 1), bias=False)
                (1): SyncBatchNorm(128, eps=1e-05, momentum=0.01, affine=True, track_running_stats=True)
              )
            )
            (2): None
          )
        )
        (relu): ReLU(inplace=True)
      )
    )
    (transition3): ModuleList(
      (0): None
      (1): None
      (2): None
      (3): Sequential(
        (0): Sequential(
          (0): Conv2d(128, 256, kernel_size=(3, 3), stride=(2, 2), padding=(1, 1), bias=False)
          (1): SyncBatchNorm(256, eps=1e-05, momentum=0.01, affine=True, track_running_stats=True)
          (2): ReLU(inplace=True)
        )
      )
    )
    (stage4): Sequential(
      (0): HighResolutionModule(
        (branches): ModuleList(
          (0): Sequential(
            (0): BasicBlock(
              (conv1): Conv2d(32, 32, kernel_size=(3, 3), stride=(1, 1), padding=(1, 1), bias=False)
              (bn1): SyncBatchNorm(32, eps=1e-05, momentum=0.01, affine=True, track_running_stats=True)
              (relu): ReLU(inplace=True)
              (conv2): Conv2d(32, 32, kernel_size=(3, 3), stride=(1, 1), padding=(1, 1), bias=False)
              (bn2): SyncBatchNorm(32, eps=1e-05, momentum=0.01, affine=True, track_running_stats=True)
            )
            (1): BasicBlock(
              (conv1): Conv2d(32, 32, kernel_size=(3, 3), stride=(1, 1), padding=(1, 1), bias=False)
              (bn1): SyncBatchNorm(32, eps=1e-05, momentum=0.01, affine=True, track_running_stats=True)
              (relu): ReLU(inplace=True)
              (conv2): Conv2d(32, 32, kernel_size=(3, 3), stride=(1, 1), padding=(1, 1), bias=False)
              (bn2): SyncBatchNorm(32, eps=1e-05, momentum=0.01, affine=True, track_running_stats=True)
            )
            (2): BasicBlock(
              (conv1): Conv2d(32, 32, kernel_size=(3, 3), stride=(1, 1), padding=(1, 1), bias=False)
              (bn1): SyncBatchNorm(32, eps=1e-05, momentum=0.01, affine=True, track_running_stats=True)
              (relu): ReLU(inplace=True)
              (conv2): Conv2d(32, 32, kernel_size=(3, 3), stride=(1, 1), padding=(1, 1), bias=False)
              (bn2): SyncBatchNorm(32, eps=1e-05, momentum=0.01, affine=True, track_running_stats=True)
            )
            (3): BasicBlock(
              (conv1): Conv2d(32, 32, kernel_size=(3, 3), stride=(1, 1), padding=(1, 1), bias=False)
              (bn1): SyncBatchNorm(32, eps=1e-05, momentum=0.01, affine=True, track_running_stats=True)
              (relu): ReLU(inplace=True)
              (conv2): Conv2d(32, 32, kernel_size=(3, 3), stride=(1, 1), padding=(1, 1), bias=False)
              (bn2): SyncBatchNorm(32, eps=1e-05, momentum=0.01, affine=True, track_running_stats=True)
            )
          )
          (1): Sequential(
            (0): BasicBlock(
              (conv1): Conv2d(64, 64, kernel_size=(3, 3), stride=(1, 1), padding=(1, 1), bias=False)
              (bn1): SyncBatchNorm(64, eps=1e-05, momentum=0.01, affine=True, track_running_stats=True)
              (relu): ReLU(inplace=True)
              (conv2): Conv2d(64, 64, kernel_size=(3, 3), stride=(1, 1), padding=(1, 1), bias=False)
              (bn2): SyncBatchNorm(64, eps=1e-05, momentum=0.01, affine=True, track_running_stats=True)
            )
            (1): BasicBlock(
              (conv1): Conv2d(64, 64, kernel_size=(3, 3), stride=(1, 1), padding=(1, 1), bias=False)
              (bn1): SyncBatchNorm(64, eps=1e-05, momentum=0.01, affine=True, track_running_stats=True)
              (relu): ReLU(inplace=True)
              (conv2): Conv2d(64, 64, kernel_size=(3, 3), stride=(1, 1), padding=(1, 1), bias=False)
              (bn2): SyncBatchNorm(64, eps=1e-05, momentum=0.01, affine=True, track_running_stats=True)
            )
            (2): BasicBlock(
              (conv1): Conv2d(64, 64, kernel_size=(3, 3), stride=(1, 1), padding=(1, 1), bias=False)
              (bn1): SyncBatchNorm(64, eps=1e-05, momentum=0.01, affine=True, track_running_stats=True)
              (relu): ReLU(inplace=True)
              (conv2): Conv2d(64, 64, kernel_size=(3, 3), stride=(1, 1), padding=(1, 1), bias=False)
              (bn2): SyncBatchNorm(64, eps=1e-05, momentum=0.01, affine=True, track_running_stats=True)
            )
            (3): BasicBlock(
              (conv1): Conv2d(64, 64, kernel_size=(3, 3), stride=(1, 1), padding=(1, 1), bias=False)
              (bn1): SyncBatchNorm(64, eps=1e-05, momentum=0.01, affine=True, track_running_stats=True)
              (relu): ReLU(inplace=True)
              (conv2): Conv2d(64, 64, kernel_size=(3, 3), stride=(1, 1), padding=(1, 1), bias=False)
              (bn2): SyncBatchNorm(64, eps=1e-05, momentum=0.01, affine=True, track_running_stats=True)
            )
          )
          (2): Sequential(
            (0): BasicBlock(
              (conv1): Conv2d(128, 128, kernel_size=(3, 3), stride=(1, 1), padding=(1, 1), bias=False)
              (bn1): SyncBatchNorm(128, eps=1e-05, momentum=0.01, affine=True, track_running_stats=True)
              (relu): ReLU(inplace=True)
              (conv2): Conv2d(128, 128, kernel_size=(3, 3), stride=(1, 1), padding=(1, 1), bias=False)
              (bn2): SyncBatchNorm(128, eps=1e-05, momentum=0.01, affine=True, track_running_stats=True)
            )
            (1): BasicBlock(
              (conv1): Conv2d(128, 128, kernel_size=(3, 3), stride=(1, 1), padding=(1, 1), bias=False)
              (bn1): SyncBatchNorm(128, eps=1e-05, momentum=0.01, affine=True, track_running_stats=True)
              (relu): ReLU(inplace=True)
              (conv2): Conv2d(128, 128, kernel_size=(3, 3), stride=(1, 1), padding=(1, 1), bias=False)
              (bn2): SyncBatchNorm(128, eps=1e-05, momentum=0.01, affine=True, track_running_stats=True)
            )
            (2): BasicBlock(
              (conv1): Conv2d(128, 128, kernel_size=(3, 3), stride=(1, 1), padding=(1, 1), bias=False)
              (bn1): SyncBatchNorm(128, eps=1e-05, momentum=0.01, affine=True, track_running_stats=True)
              (relu): ReLU(inplace=True)
              (conv2): Conv2d(128, 128, kernel_size=(3, 3), stride=(1, 1), padding=(1, 1), bias=False)
              (bn2): SyncBatchNorm(128, eps=1e-05, momentum=0.01, affine=True, track_running_stats=True)
            )
            (3): BasicBlock(
              (conv1): Conv2d(128, 128, kernel_size=(3, 3), stride=(1, 1), padding=(1, 1), bias=False)
              (bn1): SyncBatchNorm(128, eps=1e-05, momentum=0.01, affine=True, track_running_stats=True)
              (relu): ReLU(inplace=True)
              (conv2): Conv2d(128, 128, kernel_size=(3, 3), stride=(1, 1), padding=(1, 1), bias=False)
              (bn2): SyncBatchNorm(128, eps=1e-05, momentum=0.01, affine=True, track_running_stats=True)
            )
          )
          (3): Sequential(
            (0): BasicBlock(
              (conv1): Conv2d(256, 256, kernel_size=(3, 3), stride=(1, 1), padding=(1, 1), bias=False)
              (bn1): SyncBatchNorm(256, eps=1e-05, momentum=0.01, affine=True, track_running_stats=True)
              (relu): ReLU(inplace=True)
              (conv2): Conv2d(256, 256, kernel_size=(3, 3), stride=(1, 1), padding=(1, 1), bias=False)
              (bn2): SyncBatchNorm(256, eps=1e-05, momentum=0.01, affine=True, track_running_stats=True)
            )
            (1): BasicBlock(
              (conv1): Conv2d(256, 256, kernel_size=(3, 3), stride=(1, 1), padding=(1, 1), bias=False)
              (bn1): SyncBatchNorm(256, eps=1e-05, momentum=0.01, affine=True, track_running_stats=True)
              (relu): ReLU(inplace=True)
              (conv2): Conv2d(256, 256, kernel_size=(3, 3), stride=(1, 1), padding=(1, 1), bias=False)
              (bn2): SyncBatchNorm(256, eps=1e-05, momentum=0.01, affine=True, track_running_stats=True)
            )
            (2): BasicBlock(
              (conv1): Conv2d(256, 256, kernel_size=(3, 3), stride=(1, 1), padding=(1, 1), bias=False)
              (bn1): SyncBatchNorm(256, eps=1e-05, momentum=0.01, affine=True, track_running_stats=True)
              (relu): ReLU(inplace=True)
              (conv2): Conv2d(256, 256, kernel_size=(3, 3), stride=(1, 1), padding=(1, 1), bias=False)
              (bn2): SyncBatchNorm(256, eps=1e-05, momentum=0.01, affine=True, track_running_stats=True)
            )
            (3): BasicBlock(
              (conv1): Conv2d(256, 256, kernel_size=(3, 3), stride=(1, 1), padding=(1, 1), bias=False)
              (bn1): SyncBatchNorm(256, eps=1e-05, momentum=0.01, affine=True, track_running_stats=True)
              (relu): ReLU(inplace=True)
              (conv2): Conv2d(256, 256, kernel_size=(3, 3), stride=(1, 1), padding=(1, 1), bias=False)
              (bn2): SyncBatchNorm(256, eps=1e-05, momentum=0.01, affine=True, track_running_stats=True)
            )
          )
        )
        (fuse_layers): ModuleList(
          (0): ModuleList(
            (0): None
            (1): Sequential(
              (0): Conv2d(64, 32, kernel_size=(1, 1), stride=(1, 1), bias=False)
              (1): SyncBatchNorm(32, eps=1e-05, momentum=0.01, affine=True, track_running_stats=True)
            )
            (2): Sequential(
              (0): Conv2d(128, 32, kernel_size=(1, 1), stride=(1, 1), bias=False)
              (1): SyncBatchNorm(32, eps=1e-05, momentum=0.01, affine=True, track_running_stats=True)
            )
            (3): Sequential(
              (0): Conv2d(256, 32, kernel_size=(1, 1), stride=(1, 1), bias=False)
              (1): SyncBatchNorm(32, eps=1e-05, momentum=0.01, affine=True, track_running_stats=True)
            )
          )
          (1): ModuleList(
            (0): Sequential(
              (0): Sequential(
                (0): Conv2d(32, 64, kernel_size=(3, 3), stride=(2, 2), padding=(1, 1), bias=False)
                (1): SyncBatchNorm(64, eps=1e-05, momentum=0.01, affine=True, track_running_stats=True)
              )
            )
            (1): None
            (2): Sequential(
              (0): Conv2d(128, 64, kernel_size=(1, 1), stride=(1, 1), bias=False)
              (1): SyncBatchNorm(64, eps=1e-05, momentum=0.01, affine=True, track_running_stats=True)
            )
            (3): Sequential(
              (0): Conv2d(256, 64, kernel_size=(1, 1), stride=(1, 1), bias=False)
              (1): SyncBatchNorm(64, eps=1e-05, momentum=0.01, affine=True, track_running_stats=True)
            )
          )
          (2): ModuleList(
            (0): Sequential(
              (0): Sequential(
                (0): Conv2d(32, 32, kernel_size=(3, 3), stride=(2, 2), padding=(1, 1), bias=False)
                (1): SyncBatchNorm(32, eps=1e-05, momentum=0.01, affine=True, track_running_stats=True)
                (2): ReLU(inplace=True)
              )
              (1): Sequential(
                (0): Conv2d(32, 128, kernel_size=(3, 3), stride=(2, 2), padding=(1, 1), bias=False)
                (1): SyncBatchNorm(128, eps=1e-05, momentum=0.01, affine=True, track_running_stats=True)
              )
            )
            (1): Sequential(
              (0): Sequential(
                (0): Conv2d(64, 128, kernel_size=(3, 3), stride=(2, 2), padding=(1, 1), bias=False)
                (1): SyncBatchNorm(128, eps=1e-05, momentum=0.01, affine=True, track_running_stats=True)
              )
            )
            (2): None
            (3): Sequential(
              (0): Conv2d(256, 128, kernel_size=(1, 1), stride=(1, 1), bias=False)
              (1): SyncBatchNorm(128, eps=1e-05, momentum=0.01, affine=True, track_running_stats=True)
            )
          )
          (3): ModuleList(
            (0): Sequential(
              (0): Sequential(
                (0): Conv2d(32, 32, kernel_size=(3, 3), stride=(2, 2), padding=(1, 1), bias=False)
                (1): SyncBatchNorm(32, eps=1e-05, momentum=0.01, affine=True, track_running_stats=True)
                (2): ReLU(inplace=True)
              )
              (1): Sequential(
                (0): Conv2d(32, 32, kernel_size=(3, 3), stride=(2, 2), padding=(1, 1), bias=False)
                (1): SyncBatchNorm(32, eps=1e-05, momentum=0.01, affine=True, track_running_stats=True)
                (2): ReLU(inplace=True)
              )
              (2): Sequential(
                (0): Conv2d(32, 256, kernel_size=(3, 3), stride=(2, 2), padding=(1, 1), bias=False)
                (1): SyncBatchNorm(256, eps=1e-05, momentum=0.01, affine=True, track_running_stats=True)
              )
            )
            (1): Sequential(
              (0): Sequential(
                (0): Conv2d(64, 64, kernel_size=(3, 3), stride=(2, 2), padding=(1, 1), bias=False)
                (1): SyncBatchNorm(64, eps=1e-05, momentum=0.01, affine=True, track_running_stats=True)
                (2): ReLU(inplace=True)
              )
              (1): Sequential(
                (0): Conv2d(64, 256, kernel_size=(3, 3), stride=(2, 2), padding=(1, 1), bias=False)
                (1): SyncBatchNorm(256, eps=1e-05, momentum=0.01, affine=True, track_running_stats=True)
              )
            )
            (2): Sequential(
              (0): Sequential(
                (0): Conv2d(128, 256, kernel_size=(3, 3), stride=(2, 2), padding=(1, 1), bias=False)
                (1): SyncBatchNorm(256, eps=1e-05, momentum=0.01, affine=True, track_running_stats=True)
              )
            )
            (3): None
          )
        )
        (relu): ReLU(inplace=True)
      )
      (1): HighResolutionModule(
        (branches): ModuleList(
          (0): Sequential(
            (0): BasicBlock(
              (conv1): Conv2d(32, 32, kernel_size=(3, 3), stride=(1, 1), padding=(1, 1), bias=False)
              (bn1): SyncBatchNorm(32, eps=1e-05, momentum=0.01, affine=True, track_running_stats=True)
              (relu): ReLU(inplace=True)
              (conv2): Conv2d(32, 32, kernel_size=(3, 3), stride=(1, 1), padding=(1, 1), bias=False)
              (bn2): SyncBatchNorm(32, eps=1e-05, momentum=0.01, affine=True, track_running_stats=True)
            )
            (1): BasicBlock(
              (conv1): Conv2d(32, 32, kernel_size=(3, 3), stride=(1, 1), padding=(1, 1), bias=False)
              (bn1): SyncBatchNorm(32, eps=1e-05, momentum=0.01, affine=True, track_running_stats=True)
              (relu): ReLU(inplace=True)
              (conv2): Conv2d(32, 32, kernel_size=(3, 3), stride=(1, 1), padding=(1, 1), bias=False)
              (bn2): SyncBatchNorm(32, eps=1e-05, momentum=0.01, affine=True, track_running_stats=True)
            )
            (2): BasicBlock(
              (conv1): Conv2d(32, 32, kernel_size=(3, 3), stride=(1, 1), padding=(1, 1), bias=False)
              (bn1): SyncBatchNorm(32, eps=1e-05, momentum=0.01, affine=True, track_running_stats=True)
              (relu): ReLU(inplace=True)
              (conv2): Conv2d(32, 32, kernel_size=(3, 3), stride=(1, 1), padding=(1, 1), bias=False)
              (bn2): SyncBatchNorm(32, eps=1e-05, momentum=0.01, affine=True, track_running_stats=True)
            )
            (3): BasicBlock(
              (conv1): Conv2d(32, 32, kernel_size=(3, 3), stride=(1, 1), padding=(1, 1), bias=False)
              (bn1): SyncBatchNorm(32, eps=1e-05, momentum=0.01, affine=True, track_running_stats=True)
              (relu): ReLU(inplace=True)
              (conv2): Conv2d(32, 32, kernel_size=(3, 3), stride=(1, 1), padding=(1, 1), bias=False)
              (bn2): SyncBatchNorm(32, eps=1e-05, momentum=0.01, affine=True, track_running_stats=True)
            )
          )
          (1): Sequential(
            (0): BasicBlock(
              (conv1): Conv2d(64, 64, kernel_size=(3, 3), stride=(1, 1), padding=(1, 1), bias=False)
              (bn1): SyncBatchNorm(64, eps=1e-05, momentum=0.01, affine=True, track_running_stats=True)
              (relu): ReLU(inplace=True)
              (conv2): Conv2d(64, 64, kernel_size=(3, 3), stride=(1, 1), padding=(1, 1), bias=False)
              (bn2): SyncBatchNorm(64, eps=1e-05, momentum=0.01, affine=True, track_running_stats=True)
            )
            (1): BasicBlock(
              (conv1): Conv2d(64, 64, kernel_size=(3, 3), stride=(1, 1), padding=(1, 1), bias=False)
              (bn1): SyncBatchNorm(64, eps=1e-05, momentum=0.01, affine=True, track_running_stats=True)
              (relu): ReLU(inplace=True)
              (conv2): Conv2d(64, 64, kernel_size=(3, 3), stride=(1, 1), padding=(1, 1), bias=False)
              (bn2): SyncBatchNorm(64, eps=1e-05, momentum=0.01, affine=True, track_running_stats=True)
            )
            (2): BasicBlock(
              (conv1): Conv2d(64, 64, kernel_size=(3, 3), stride=(1, 1), padding=(1, 1), bias=False)
              (bn1): SyncBatchNorm(64, eps=1e-05, momentum=0.01, affine=True, track_running_stats=True)
              (relu): ReLU(inplace=True)
              (conv2): Conv2d(64, 64, kernel_size=(3, 3), stride=(1, 1), padding=(1, 1), bias=False)
              (bn2): SyncBatchNorm(64, eps=1e-05, momentum=0.01, affine=True, track_running_stats=True)
            )
            (3): BasicBlock(
              (conv1): Conv2d(64, 64, kernel_size=(3, 3), stride=(1, 1), padding=(1, 1), bias=False)
              (bn1): SyncBatchNorm(64, eps=1e-05, momentum=0.01, affine=True, track_running_stats=True)
              (relu): ReLU(inplace=True)
              (conv2): Conv2d(64, 64, kernel_size=(3, 3), stride=(1, 1), padding=(1, 1), bias=False)
              (bn2): SyncBatchNorm(64, eps=1e-05, momentum=0.01, affine=True, track_running_stats=True)
            )
          )
          (2): Sequential(
            (0): BasicBlock(
              (conv1): Conv2d(128, 128, kernel_size=(3, 3), stride=(1, 1), padding=(1, 1), bias=False)
              (bn1): SyncBatchNorm(128, eps=1e-05, momentum=0.01, affine=True, track_running_stats=True)
              (relu): ReLU(inplace=True)
              (conv2): Conv2d(128, 128, kernel_size=(3, 3), stride=(1, 1), padding=(1, 1), bias=False)
              (bn2): SyncBatchNorm(128, eps=1e-05, momentum=0.01, affine=True, track_running_stats=True)
            )
            (1): BasicBlock(
              (conv1): Conv2d(128, 128, kernel_size=(3, 3), stride=(1, 1), padding=(1, 1), bias=False)
              (bn1): SyncBatchNorm(128, eps=1e-05, momentum=0.01, affine=True, track_running_stats=True)
              (relu): ReLU(inplace=True)
              (conv2): Conv2d(128, 128, kernel_size=(3, 3), stride=(1, 1), padding=(1, 1), bias=False)
              (bn2): SyncBatchNorm(128, eps=1e-05, momentum=0.01, affine=True, track_running_stats=True)
            )
            (2): BasicBlock(
              (conv1): Conv2d(128, 128, kernel_size=(3, 3), stride=(1, 1), padding=(1, 1), bias=False)
              (bn1): SyncBatchNorm(128, eps=1e-05, momentum=0.01, affine=True, track_running_stats=True)
              (relu): ReLU(inplace=True)
              (conv2): Conv2d(128, 128, kernel_size=(3, 3), stride=(1, 1), padding=(1, 1), bias=False)
              (bn2): SyncBatchNorm(128, eps=1e-05, momentum=0.01, affine=True, track_running_stats=True)
            )
            (3): BasicBlock(
              (conv1): Conv2d(128, 128, kernel_size=(3, 3), stride=(1, 1), padding=(1, 1), bias=False)
              (bn1): SyncBatchNorm(128, eps=1e-05, momentum=0.01, affine=True, track_running_stats=True)
              (relu): ReLU(inplace=True)
              (conv2): Conv2d(128, 128, kernel_size=(3, 3), stride=(1, 1), padding=(1, 1), bias=False)
              (bn2): SyncBatchNorm(128, eps=1e-05, momentum=0.01, affine=True, track_running_stats=True)
            )
          )
          (3): Sequential(
            (0): BasicBlock(
              (conv1): Conv2d(256, 256, kernel_size=(3, 3), stride=(1, 1), padding=(1, 1), bias=False)
              (bn1): SyncBatchNorm(256, eps=1e-05, momentum=0.01, affine=True, track_running_stats=True)
              (relu): ReLU(inplace=True)
              (conv2): Conv2d(256, 256, kernel_size=(3, 3), stride=(1, 1), padding=(1, 1), bias=False)
              (bn2): SyncBatchNorm(256, eps=1e-05, momentum=0.01, affine=True, track_running_stats=True)
            )
            (1): BasicBlock(
              (conv1): Conv2d(256, 256, kernel_size=(3, 3), stride=(1, 1), padding=(1, 1), bias=False)
              (bn1): SyncBatchNorm(256, eps=1e-05, momentum=0.01, affine=True, track_running_stats=True)
              (relu): ReLU(inplace=True)
              (conv2): Conv2d(256, 256, kernel_size=(3, 3), stride=(1, 1), padding=(1, 1), bias=False)
              (bn2): SyncBatchNorm(256, eps=1e-05, momentum=0.01, affine=True, track_running_stats=True)
            )
            (2): BasicBlock(
              (conv1): Conv2d(256, 256, kernel_size=(3, 3), stride=(1, 1), padding=(1, 1), bias=False)
              (bn1): SyncBatchNorm(256, eps=1e-05, momentum=0.01, affine=True, track_running_stats=True)
              (relu): ReLU(inplace=True)
              (conv2): Conv2d(256, 256, kernel_size=(3, 3), stride=(1, 1), padding=(1, 1), bias=False)
              (bn2): SyncBatchNorm(256, eps=1e-05, momentum=0.01, affine=True, track_running_stats=True)
            )
            (3): BasicBlock(
              (conv1): Conv2d(256, 256, kernel_size=(3, 3), stride=(1, 1), padding=(1, 1), bias=False)
              (bn1): SyncBatchNorm(256, eps=1e-05, momentum=0.01, affine=True, track_running_stats=True)
              (relu): ReLU(inplace=True)
              (conv2): Conv2d(256, 256, kernel_size=(3, 3), stride=(1, 1), padding=(1, 1), bias=False)
              (bn2): SyncBatchNorm(256, eps=1e-05, momentum=0.01, affine=True, track_running_stats=True)
            )
          )
        )
        (fuse_layers): ModuleList(
          (0): ModuleList(
            (0): None
            (1): Sequential(
              (0): Conv2d(64, 32, kernel_size=(1, 1), stride=(1, 1), bias=False)
              (1): SyncBatchNorm(32, eps=1e-05, momentum=0.01, affine=True, track_running_stats=True)
            )
            (2): Sequential(
              (0): Conv2d(128, 32, kernel_size=(1, 1), stride=(1, 1), bias=False)
              (1): SyncBatchNorm(32, eps=1e-05, momentum=0.01, affine=True, track_running_stats=True)
            )
            (3): Sequential(
              (0): Conv2d(256, 32, kernel_size=(1, 1), stride=(1, 1), bias=False)
              (1): SyncBatchNorm(32, eps=1e-05, momentum=0.01, affine=True, track_running_stats=True)
            )
          )
          (1): ModuleList(
            (0): Sequential(
              (0): Sequential(
                (0): Conv2d(32, 64, kernel_size=(3, 3), stride=(2, 2), padding=(1, 1), bias=False)
                (1): SyncBatchNorm(64, eps=1e-05, momentum=0.01, affine=True, track_running_stats=True)
              )
            )
            (1): None
            (2): Sequential(
              (0): Conv2d(128, 64, kernel_size=(1, 1), stride=(1, 1), bias=False)
              (1): SyncBatchNorm(64, eps=1e-05, momentum=0.01, affine=True, track_running_stats=True)
            )
            (3): Sequential(
              (0): Conv2d(256, 64, kernel_size=(1, 1), stride=(1, 1), bias=False)
              (1): SyncBatchNorm(64, eps=1e-05, momentum=0.01, affine=True, track_running_stats=True)
            )
          )
          (2): ModuleList(
            (0): Sequential(
              (0): Sequential(
                (0): Conv2d(32, 32, kernel_size=(3, 3), stride=(2, 2), padding=(1, 1), bias=False)
                (1): SyncBatchNorm(32, eps=1e-05, momentum=0.01, affine=True, track_running_stats=True)
                (2): ReLU(inplace=True)
              )
              (1): Sequential(
                (0): Conv2d(32, 128, kernel_size=(3, 3), stride=(2, 2), padding=(1, 1), bias=False)
                (1): SyncBatchNorm(128, eps=1e-05, momentum=0.01, affine=True, track_running_stats=True)
              )
            )
            (1): Sequential(
              (0): Sequential(
                (0): Conv2d(64, 128, kernel_size=(3, 3), stride=(2, 2), padding=(1, 1), bias=False)
                (1): SyncBatchNorm(128, eps=1e-05, momentum=0.01, affine=True, track_running_stats=True)
              )
            )
            (2): None
            (3): Sequential(
              (0): Conv2d(256, 128, kernel_size=(1, 1), stride=(1, 1), bias=False)
              (1): SyncBatchNorm(128, eps=1e-05, momentum=0.01, affine=True, track_running_stats=True)
            )
          )
          (3): ModuleList(
            (0): Sequential(
              (0): Sequential(
                (0): Conv2d(32, 32, kernel_size=(3, 3), stride=(2, 2), padding=(1, 1), bias=False)
                (1): SyncBatchNorm(32, eps=1e-05, momentum=0.01, affine=True, track_running_stats=True)
                (2): ReLU(inplace=True)
              )
              (1): Sequential(
                (0): Conv2d(32, 32, kernel_size=(3, 3), stride=(2, 2), padding=(1, 1), bias=False)
                (1): SyncBatchNorm(32, eps=1e-05, momentum=0.01, affine=True, track_running_stats=True)
                (2): ReLU(inplace=True)
              )
              (2): Sequential(
                (0): Conv2d(32, 256, kernel_size=(3, 3), stride=(2, 2), padding=(1, 1), bias=False)
                (1): SyncBatchNorm(256, eps=1e-05, momentum=0.01, affine=True, track_running_stats=True)
              )
            )
            (1): Sequential(
              (0): Sequential(
                (0): Conv2d(64, 64, kernel_size=(3, 3), stride=(2, 2), padding=(1, 1), bias=False)
                (1): SyncBatchNorm(64, eps=1e-05, momentum=0.01, affine=True, track_running_stats=True)
                (2): ReLU(inplace=True)
              )
              (1): Sequential(
                (0): Conv2d(64, 256, kernel_size=(3, 3), stride=(2, 2), padding=(1, 1), bias=False)
                (1): SyncBatchNorm(256, eps=1e-05, momentum=0.01, affine=True, track_running_stats=True)
              )
            )
            (2): Sequential(
              (0): Sequential(
                (0): Conv2d(128, 256, kernel_size=(3, 3), stride=(2, 2), padding=(1, 1), bias=False)
                (1): SyncBatchNorm(256, eps=1e-05, momentum=0.01, affine=True, track_running_stats=True)
              )
            )
            (3): None
          )
        )
        (relu): ReLU(inplace=True)
      )
      (2): HighResolutionModule(
        (branches): ModuleList(
          (0): Sequential(
            (0): BasicBlock(
              (conv1): Conv2d(32, 32, kernel_size=(3, 3), stride=(1, 1), padding=(1, 1), bias=False)
              (bn1): SyncBatchNorm(32, eps=1e-05, momentum=0.01, affine=True, track_running_stats=True)
              (relu): ReLU(inplace=True)
              (conv2): Conv2d(32, 32, kernel_size=(3, 3), stride=(1, 1), padding=(1, 1), bias=False)
              (bn2): SyncBatchNorm(32, eps=1e-05, momentum=0.01, affine=True, track_running_stats=True)
            )
            (1): BasicBlock(
              (conv1): Conv2d(32, 32, kernel_size=(3, 3), stride=(1, 1), padding=(1, 1), bias=False)
              (bn1): SyncBatchNorm(32, eps=1e-05, momentum=0.01, affine=True, track_running_stats=True)
              (relu): ReLU(inplace=True)
              (conv2): Conv2d(32, 32, kernel_size=(3, 3), stride=(1, 1), padding=(1, 1), bias=False)
              (bn2): SyncBatchNorm(32, eps=1e-05, momentum=0.01, affine=True, track_running_stats=True)
            )
            (2): BasicBlock(
              (conv1): Conv2d(32, 32, kernel_size=(3, 3), stride=(1, 1), padding=(1, 1), bias=False)
              (bn1): SyncBatchNorm(32, eps=1e-05, momentum=0.01, affine=True, track_running_stats=True)
              (relu): ReLU(inplace=True)
              (conv2): Conv2d(32, 32, kernel_size=(3, 3), stride=(1, 1), padding=(1, 1), bias=False)
              (bn2): SyncBatchNorm(32, eps=1e-05, momentum=0.01, affine=True, track_running_stats=True)
            )
            (3): BasicBlock(
              (conv1): Conv2d(32, 32, kernel_size=(3, 3), stride=(1, 1), padding=(1, 1), bias=False)
              (bn1): SyncBatchNorm(32, eps=1e-05, momentum=0.01, affine=True, track_running_stats=True)
              (relu): ReLU(inplace=True)
              (conv2): Conv2d(32, 32, kernel_size=(3, 3), stride=(1, 1), padding=(1, 1), bias=False)
              (bn2): SyncBatchNorm(32, eps=1e-05, momentum=0.01, affine=True, track_running_stats=True)
            )
          )
          (1): Sequential(
            (0): BasicBlock(
              (conv1): Conv2d(64, 64, kernel_size=(3, 3), stride=(1, 1), padding=(1, 1), bias=False)
              (bn1): SyncBatchNorm(64, eps=1e-05, momentum=0.01, affine=True, track_running_stats=True)
              (relu): ReLU(inplace=True)
              (conv2): Conv2d(64, 64, kernel_size=(3, 3), stride=(1, 1), padding=(1, 1), bias=False)
              (bn2): SyncBatchNorm(64, eps=1e-05, momentum=0.01, affine=True, track_running_stats=True)
            )
            (1): BasicBlock(
              (conv1): Conv2d(64, 64, kernel_size=(3, 3), stride=(1, 1), padding=(1, 1), bias=False)
              (bn1): SyncBatchNorm(64, eps=1e-05, momentum=0.01, affine=True, track_running_stats=True)
              (relu): ReLU(inplace=True)
              (conv2): Conv2d(64, 64, kernel_size=(3, 3), stride=(1, 1), padding=(1, 1), bias=False)
              (bn2): SyncBatchNorm(64, eps=1e-05, momentum=0.01, affine=True, track_running_stats=True)
            )
            (2): BasicBlock(
              (conv1): Conv2d(64, 64, kernel_size=(3, 3), stride=(1, 1), padding=(1, 1), bias=False)
              (bn1): SyncBatchNorm(64, eps=1e-05, momentum=0.01, affine=True, track_running_stats=True)
              (relu): ReLU(inplace=True)
              (conv2): Conv2d(64, 64, kernel_size=(3, 3), stride=(1, 1), padding=(1, 1), bias=False)
              (bn2): SyncBatchNorm(64, eps=1e-05, momentum=0.01, affine=True, track_running_stats=True)
            )
            (3): BasicBlock(
              (conv1): Conv2d(64, 64, kernel_size=(3, 3), stride=(1, 1), padding=(1, 1), bias=False)
              (bn1): SyncBatchNorm(64, eps=1e-05, momentum=0.01, affine=True, track_running_stats=True)
              (relu): ReLU(inplace=True)
              (conv2): Conv2d(64, 64, kernel_size=(3, 3), stride=(1, 1), padding=(1, 1), bias=False)
              (bn2): SyncBatchNorm(64, eps=1e-05, momentum=0.01, affine=True, track_running_stats=True)
            )
          )
          (2): Sequential(
            (0): BasicBlock(
              (conv1): Conv2d(128, 128, kernel_size=(3, 3), stride=(1, 1), padding=(1, 1), bias=False)
              (bn1): SyncBatchNorm(128, eps=1e-05, momentum=0.01, affine=True, track_running_stats=True)
              (relu): ReLU(inplace=True)
              (conv2): Conv2d(128, 128, kernel_size=(3, 3), stride=(1, 1), padding=(1, 1), bias=False)
              (bn2): SyncBatchNorm(128, eps=1e-05, momentum=0.01, affine=True, track_running_stats=True)
            )
            (1): BasicBlock(
              (conv1): Conv2d(128, 128, kernel_size=(3, 3), stride=(1, 1), padding=(1, 1), bias=False)
              (bn1): SyncBatchNorm(128, eps=1e-05, momentum=0.01, affine=True, track_running_stats=True)
              (relu): ReLU(inplace=True)
              (conv2): Conv2d(128, 128, kernel_size=(3, 3), stride=(1, 1), padding=(1, 1), bias=False)
              (bn2): SyncBatchNorm(128, eps=1e-05, momentum=0.01, affine=True, track_running_stats=True)
            )
            (2): BasicBlock(
              (conv1): Conv2d(128, 128, kernel_size=(3, 3), stride=(1, 1), padding=(1, 1), bias=False)
              (bn1): SyncBatchNorm(128, eps=1e-05, momentum=0.01, affine=True, track_running_stats=True)
              (relu): ReLU(inplace=True)
              (conv2): Conv2d(128, 128, kernel_size=(3, 3), stride=(1, 1), padding=(1, 1), bias=False)
              (bn2): SyncBatchNorm(128, eps=1e-05, momentum=0.01, affine=True, track_running_stats=True)
            )
            (3): BasicBlock(
              (conv1): Conv2d(128, 128, kernel_size=(3, 3), stride=(1, 1), padding=(1, 1), bias=False)
              (bn1): SyncBatchNorm(128, eps=1e-05, momentum=0.01, affine=True, track_running_stats=True)
              (relu): ReLU(inplace=True)
              (conv2): Conv2d(128, 128, kernel_size=(3, 3), stride=(1, 1), padding=(1, 1), bias=False)
              (bn2): SyncBatchNorm(128, eps=1e-05, momentum=0.01, affine=True, track_running_stats=True)
            )
          )
          (3): Sequential(
            (0): BasicBlock(
              (conv1): Conv2d(256, 256, kernel_size=(3, 3), stride=(1, 1), padding=(1, 1), bias=False)
              (bn1): SyncBatchNorm(256, eps=1e-05, momentum=0.01, affine=True, track_running_stats=True)
              (relu): ReLU(inplace=True)
              (conv2): Conv2d(256, 256, kernel_size=(3, 3), stride=(1, 1), padding=(1, 1), bias=False)
              (bn2): SyncBatchNorm(256, eps=1e-05, momentum=0.01, affine=True, track_running_stats=True)
            )
            (1): BasicBlock(
              (conv1): Conv2d(256, 256, kernel_size=(3, 3), stride=(1, 1), padding=(1, 1), bias=False)
              (bn1): SyncBatchNorm(256, eps=1e-05, momentum=0.01, affine=True, track_running_stats=True)
              (relu): ReLU(inplace=True)
              (conv2): Conv2d(256, 256, kernel_size=(3, 3), stride=(1, 1), padding=(1, 1), bias=False)
              (bn2): SyncBatchNorm(256, eps=1e-05, momentum=0.01, affine=True, track_running_stats=True)
            )
            (2): BasicBlock(
              (conv1): Conv2d(256, 256, kernel_size=(3, 3), stride=(1, 1), padding=(1, 1), bias=False)
              (bn1): SyncBatchNorm(256, eps=1e-05, momentum=0.01, affine=True, track_running_stats=True)
              (relu): ReLU(inplace=True)
              (conv2): Conv2d(256, 256, kernel_size=(3, 3), stride=(1, 1), padding=(1, 1), bias=False)
              (bn2): SyncBatchNorm(256, eps=1e-05, momentum=0.01, affine=True, track_running_stats=True)
            )
            (3): BasicBlock(
              (conv1): Conv2d(256, 256, kernel_size=(3, 3), stride=(1, 1), padding=(1, 1), bias=False)
              (bn1): SyncBatchNorm(256, eps=1e-05, momentum=0.01, affine=True, track_running_stats=True)
              (relu): ReLU(inplace=True)
              (conv2): Conv2d(256, 256, kernel_size=(3, 3), stride=(1, 1), padding=(1, 1), bias=False)
              (bn2): SyncBatchNorm(256, eps=1e-05, momentum=0.01, affine=True, track_running_stats=True)
            )
          )
        )
        (fuse_layers): ModuleList(
          (0): ModuleList(
            (0): None
            (1): Sequential(
              (0): Conv2d(64, 32, kernel_size=(1, 1), stride=(1, 1), bias=False)
              (1): SyncBatchNorm(32, eps=1e-05, momentum=0.01, affine=True, track_running_stats=True)
            )
            (2): Sequential(
              (0): Conv2d(128, 32, kernel_size=(1, 1), stride=(1, 1), bias=False)
              (1): SyncBatchNorm(32, eps=1e-05, momentum=0.01, affine=True, track_running_stats=True)
            )
            (3): Sequential(
              (0): Conv2d(256, 32, kernel_size=(1, 1), stride=(1, 1), bias=False)
              (1): SyncBatchNorm(32, eps=1e-05, momentum=0.01, affine=True, track_running_stats=True)
            )
          )
          (1): ModuleList(
            (0): Sequential(
              (0): Sequential(
                (0): Conv2d(32, 64, kernel_size=(3, 3), stride=(2, 2), padding=(1, 1), bias=False)
                (1): SyncBatchNorm(64, eps=1e-05, momentum=0.01, affine=True, track_running_stats=True)
              )
            )
            (1): None
            (2): Sequential(
              (0): Conv2d(128, 64, kernel_size=(1, 1), stride=(1, 1), bias=False)
              (1): SyncBatchNorm(64, eps=1e-05, momentum=0.01, affine=True, track_running_stats=True)
            )
            (3): Sequential(
              (0): Conv2d(256, 64, kernel_size=(1, 1), stride=(1, 1), bias=False)
              (1): SyncBatchNorm(64, eps=1e-05, momentum=0.01, affine=True, track_running_stats=True)
            )
          )
          (2): ModuleList(
            (0): Sequential(
              (0): Sequential(
                (0): Conv2d(32, 32, kernel_size=(3, 3), stride=(2, 2), padding=(1, 1), bias=False)
                (1): SyncBatchNorm(32, eps=1e-05, momentum=0.01, affine=True, track_running_stats=True)
                (2): ReLU(inplace=True)
              )
              (1): Sequential(
                (0): Conv2d(32, 128, kernel_size=(3, 3), stride=(2, 2), padding=(1, 1), bias=False)
                (1): SyncBatchNorm(128, eps=1e-05, momentum=0.01, affine=True, track_running_stats=True)
              )
            )
            (1): Sequential(
              (0): Sequential(
                (0): Conv2d(64, 128, kernel_size=(3, 3), stride=(2, 2), padding=(1, 1), bias=False)
                (1): SyncBatchNorm(128, eps=1e-05, momentum=0.01, affine=True, track_running_stats=True)
              )
            )
            (2): None
            (3): Sequential(
              (0): Conv2d(256, 128, kernel_size=(1, 1), stride=(1, 1), bias=False)
              (1): SyncBatchNorm(128, eps=1e-05, momentum=0.01, affine=True, track_running_stats=True)
            )
          )
          (3): ModuleList(
            (0): Sequential(
              (0): Sequential(
                (0): Conv2d(32, 32, kernel_size=(3, 3), stride=(2, 2), padding=(1, 1), bias=False)
                (1): SyncBatchNorm(32, eps=1e-05, momentum=0.01, affine=True, track_running_stats=True)
                (2): ReLU(inplace=True)
              )
              (1): Sequential(
                (0): Conv2d(32, 32, kernel_size=(3, 3), stride=(2, 2), padding=(1, 1), bias=False)
                (1): SyncBatchNorm(32, eps=1e-05, momentum=0.01, affine=True, track_running_stats=True)
                (2): ReLU(inplace=True)
              )
              (2): Sequential(
                (0): Conv2d(32, 256, kernel_size=(3, 3), stride=(2, 2), padding=(1, 1), bias=False)
                (1): SyncBatchNorm(256, eps=1e-05, momentum=0.01, affine=True, track_running_stats=True)
              )
            )
            (1): Sequential(
              (0): Sequential(
                (0): Conv2d(64, 64, kernel_size=(3, 3), stride=(2, 2), padding=(1, 1), bias=False)
                (1): SyncBatchNorm(64, eps=1e-05, momentum=0.01, affine=True, track_running_stats=True)
                (2): ReLU(inplace=True)
              )
              (1): Sequential(
                (0): Conv2d(64, 256, kernel_size=(3, 3), stride=(2, 2), padding=(1, 1), bias=False)
                (1): SyncBatchNorm(256, eps=1e-05, momentum=0.01, affine=True, track_running_stats=True)
              )
            )
            (2): Sequential(
              (0): Sequential(
                (0): Conv2d(128, 256, kernel_size=(3, 3), stride=(2, 2), padding=(1, 1), bias=False)
                (1): SyncBatchNorm(256, eps=1e-05, momentum=0.01, affine=True, track_running_stats=True)
              )
            )
            (3): None
          )
        )
        (relu): ReLU(inplace=True)
      )
    )
  )
  (necks): ConcatNeck()
  (heads): CenternetRelationHeads(
    (cls_head): SingleHead(
      (head_fcn0): Conv2d(
        482, 128, kernel_size=(3, 3), stride=(1, 1), padding=(1, 1), bias=False
        (norm): SyncBatchNorm(128, eps=1e-05, momentum=0.01, affine=True, track_running_stats=True)
      )
      (head_fcn1): Conv2d(
        128, 128, kernel_size=(3, 3), stride=(1, 1), padding=(1, 1), bias=False
        (norm): SyncBatchNorm(128, eps=1e-05, momentum=0.01, affine=True, track_running_stats=True)
      )
      (head_fcn2): Conv2d(
        128, 128, kernel_size=(3, 3), stride=(1, 1), padding=(1, 1), bias=False
        (norm): SyncBatchNorm(128, eps=1e-05, momentum=0.01, affine=True, track_running_stats=True)
      )
      (head_fcn3): Conv2d(
        128, 128, kernel_size=(3, 3), stride=(1, 1), padding=(1, 1), bias=False
        (norm): SyncBatchNorm(128, eps=1e-05, momentum=0.01, affine=True, track_running_stats=True)
      )
      (out_conv): Conv2d(128, 150, kernel_size=(1, 1), stride=(1, 1))
    )
    (wh_head): SingleHead(
      (head_fcn0): Conv2d(
        482, 128, kernel_size=(3, 3), stride=(1, 1), padding=(1, 1), bias=False
        (norm): SyncBatchNorm(128, eps=1e-05, momentum=0.01, affine=True, track_running_stats=True)
      )
      (head_fcn1): Conv2d(
        128, 128, kernel_size=(3, 3), stride=(1, 1), padding=(1, 1), bias=False
        (norm): SyncBatchNorm(128, eps=1e-05, momentum=0.01, affine=True, track_running_stats=True)
      )
      (head_fcn2): Conv2d(
        128, 128, kernel_size=(3, 3), stride=(1, 1), padding=(1, 1), bias=False
        (norm): SyncBatchNorm(128, eps=1e-05, momentum=0.01, affine=True, track_running_stats=True)
      )
      (head_fcn3): Conv2d(
        128, 128, kernel_size=(3, 3), stride=(1, 1), padding=(1, 1), bias=False
        (norm): SyncBatchNorm(128, eps=1e-05, momentum=0.01, affine=True, track_running_stats=True)
      )
      (out_conv): Conv2d(128, 2, kernel_size=(1, 1), stride=(1, 1))
    )
    (reg_head): SingleHead(
      (head_fcn0): Conv2d(
        482, 128, kernel_size=(3, 3), stride=(1, 1), padding=(1, 1), bias=False
        (norm): SyncBatchNorm(128, eps=1e-05, momentum=0.01, affine=True, track_running_stats=True)
      )
      (head_fcn1): Conv2d(
        128, 128, kernel_size=(3, 3), stride=(1, 1), padding=(1, 1), bias=False
        (norm): SyncBatchNorm(128, eps=1e-05, momentum=0.01, affine=True, track_running_stats=True)
      )
      (head_fcn2): Conv2d(
        128, 128, kernel_size=(3, 3), stride=(1, 1), padding=(1, 1), bias=False
        (norm): SyncBatchNorm(128, eps=1e-05, momentum=0.01, affine=True, track_running_stats=True)
      )
      (head_fcn3): Conv2d(
        128, 128, kernel_size=(3, 3), stride=(1, 1), padding=(1, 1), bias=False
        (norm): SyncBatchNorm(128, eps=1e-05, momentum=0.01, affine=True, track_running_stats=True)
      )
      (out_conv): Conv2d(128, 2, kernel_size=(1, 1), stride=(1, 1))
    )
    (raf_head): SingleHead(
      (head_fcn0): Conv2d(
        482, 128, kernel_size=(3, 3), stride=(2, 2), padding=(1, 1), bias=False
        (norm): SyncBatchNorm(128, eps=1e-05, momentum=0.01, affine=True, track_running_stats=True)
      )
      (head_fcn1): Conv2d(
        128, 128, kernel_size=(3, 3), stride=(1, 1), padding=(1, 1), bias=False
        (norm): SyncBatchNorm(128, eps=1e-05, momentum=0.01, affine=True, track_running_stats=True)
      )
      (head_fcn2): Conv2d(
        128, 128, kernel_size=(3, 3), stride=(1, 1), padding=(1, 1), bias=False
        (norm): SyncBatchNorm(128, eps=1e-05, momentum=0.01, affine=True, track_running_stats=True)
      )
      (head_fcn3): Conv2d(
        128, 128, kernel_size=(3, 3), stride=(1, 1), padding=(1, 1), bias=False
        (norm): SyncBatchNorm(128, eps=1e-05, momentum=0.01, affine=True, track_running_stats=True)
      )
      (out_conv_x): Conv2d(128, 50, kernel_size=(1, 1), stride=(1, 1))
      (out_conv_y): Conv2d(128, 50, kernel_size=(1, 1), stride=(1, 1))
    )
    (raf_loss_evaluator): RAFLoss()
  )
)
[06/09 11:37:11] d2.data.build INFO: Removed 0 images with no usable annotations. 8 images left.
[06/09 11:37:11] d2.data.build INFO: Distribution of instances among all 150 categories:
[36m|  category  | #instances   |  category  | #instances   |  category  | #instances   |
|:----------:|:-------------|:----------:|:-------------|:----------:|:-------------|
…
